app/src/main/assets/model_02.tflite (tflite, 87696 bytes, 2 tensors)

model_1/conv2d_transpose_1/BiasAdd/ReadVariableOp/resource f4 [32]
00000000: 0000 0000 0000 0000 0000 0000 0000 0000
00000010: 0000 0000 0000 0000 0000 0000 0000 0000
00000020: 0000 0000 0000 0000 0000 0000 0000 0000
00000030: 0000 0000 0000 0000 0000 0000 0000 0000
00000040: 0000 0000 0000 0000 0000 0000 0000 0000
00000050: 0000 0000 0000 0000 0000 0000 0000 0000
00000060: 0000 0000 0000 0000 0000 0000 0000 0000
00000070: 0000 0000 0000 0000 0000 0000 0000 0000
0.0 0.0 0.0 0.0 0.0 0.0 0.0 0.0
0.0 0.0 0.0 0.0 0.0 0.0 0.0 0.0
0.0 0.0 0.0 0.0 0.0 0.0 0.0 0.0
0.0 0.0 0.0 0.0 0.0 0.0 0.0 0.0

model_1/conv2d_transpose_1/conv2d_transpose f4 [32, 5, 3, 45]
00000000: fbad 8ebd 41cf aa3d 2e6a b33c cef4 7bbd
00000010: 976a 6ebd ce08 743d 67b2 303c 609e cb3b
00000020: ae3f 4c3c c4cc 9cbc 0ead 573a c65f 153d
00000030: 7219 793d 9644 cc3c 8a79 383a 0a29 9f3d
00000040: f8f4 3b3d 5e87 54bd a074 17bd da4f 053d
00000050: 766a 82bd 5e0b f9bb 818f c93d aa5f f83c
00000060: 7709 913b 2b07 a93d 0cec b03c 3be2 e03d
00000070: bb0b 40bb 797b 06be d663 0abe b989 ea3d
00000080: 10f2 ddbc 6723 b1bd c0ed a2ba 1a8d 3fbc
00000090: 9afa 82bd b5b4 d03d 329f cb3b bc1f 3b3d
000000a0: 8d95 a93c 3c71 093c 5b81 dcbc 8f9c 763d
000000b0: 0537 4e3d 775b 7bbd 266c 3d3d 0066 0fbe
000000c0: 4ad1 08be b613 32bd fc20 d93d f2d5 dbbd
000000d0: acbc 0ebd 23d8 a63d c60c 08bd 5259 0a3e
000000e0: 3149 e9bd 4e17 a5bd b305 d93b 9c45 8dba
000000f0: 4dfb a6bd e26f 2dbb 32e6 45bd 2c68 86bd
00000100: 9107 763c 9942 56bd 9222 afbd a106 cdbd
00000110: 44b6 063d 940a d7ba 8403 a5bc 3c7d 053d
00000120: 741a a43c 2e4f 3dbc 0adb dcbd 1844 88bd
00000130: b722 383d 9c17 3b3d 4a41 6e3d ac59 81bd
00000140: 78c9 d23c 5cdd 603d dff2 0b3e 8a5f 03be
00000150: 66c8 fd3d e4ad fb3c 7241 cf3d f015 f33d
00000160: bd01 c3bc 05fc dc3d 71f1 77bd c70c ed3d
00000170: 1bd5 373d bfb5 8d3d d7c5 88bd 5004 93bd
00000180: c973 03bc cab6 2a3c fce1 4ebd d046 72bc
00000190: b1fb 893d 5132 0abd 0b00 683d e13b e3bd
000001a0: 83ef 19bd 81bb 243d 01ba d4bb 7a4c 48bc
000001b0: 341b d53c 6d06 c7bc 2ae9 eebd 8799 d83d
000001c0: ed51 abbc 06ad 02bd ef68 1fbd 712e ebbd
000001d0: 6045 1e3c edd4 a93d 8c65 7ebd 3239 3fbd
000001e0: 950d 8abd 0da8 513d c87c b63c fe52 dfbc
000001f0: af4f c73d fba5 a1bc 565f ef3c 538c b43d
00000200: 63e1 0bbe f968 e23d 816c 65bd 2fba ce3d
00000210: 95e1 1d3d 02ec ca3c 6e7a 563d 43d4 fcbd
00000220: 0e80 fdbc 8067 253b 1891 c0bd 48bf 0e3e
00000230: e8f0 c13c 6f64 b8bd efe7 fabc 528e e5bd
00000240: 0248 a7bc 50b5 1a3d d133 753d 9215 b8bd
00000250: d164 cb3c b92a fdbb fa69 8bbc c6bb c7bb
00000260: 46cd 533d 1a6b 0c3e 3e7f b63d ec77 263d
00000270: 3bd2 fe3d bf64 933d 5447 e83a 9e3c 3e3d
00000280: 6faa c8bc b883 b9bd ab19 d33d 6a1b 06be
00000290: 4293 ce3c b00f 89bc 9f4f 933c 9e60 d7bb
000002a0: 6ec3 cebc caa2 433c 6321 6bbd b1ab 06be
000002b0: 07aa 323c 2ad8 71bc 3cd1 c9bd 96bd a73c
000002c0: f968 9abb 5e93 ea3d 42ad d63c 1d80 2b3d
000002d0: 17cf 9c3d 3e18 023d b51a b139 893d 253d
000002e0: edfd 5cbc 7a02 9ebd 72a5 89bd 9da6 85bc
000002f0: c1f0 e9bc d97b 313d 05d9 0a3d 099d 86bd
00000300: 91bd c03d aa2e a23d 8e3d 03be dde7 d73c
00000310: 5586 073d 6fa8 89bc fda0 d9bc 7c30 b43d
00000320: b10c 0abd 2394 9f3c 4bd6 483b 8992 033c
00000330: 225b 7b3d b57f 423c 876c 023e 0e98 cfba
00000340: 5122 2fbd 4227 1d3d d370 9fbb 4206 2fbd
00000350: 322e 25bd c70f 44bd 6029 0abe 6318 5fbb
00000360: 2f5f 65bc 2113 77bc 255a 0dbd 7543 72bc
00000370: e08c 4fbd 9332 36bd 4042 203d 5025 f4bc
00000380: cae1 453c d509 b4bd 9fbe acbd cf41 583d
00000390: 9895 483d de96 fdbc e3d6 9f3d f297 8ebd
000003a0: 02c6 2a3d 3c67 3a3d abce 113e e785 083d
000003b0: a2d0 693d a23f 3dbc aa15 83bd ad97 36bc
000003c0: 1ff9 093e d26a 14bd f149 a0bb 03c5 183c
000003d0: 9884 abba 3ad6 a1bb cca6 e1bd 056f b33d
000003e0: cb4f 94bd 1fe3 9cbc 85bc cc3d b6b8 783d
000003f0: f352 cc3d 2f6f 75bd 6039 9e3c f84a 9bbd
-0.06966778 0.08340312 0.021901216 -0.06151276 -0.05820712 0.05957871 0.010784722 0.006213948
0.012466354 -0.019140609 0.0008227386 0.03646829 0.060815282 0.024935048 0.00070371537 0.077714995
0.045887917 -0.05188691 -0.036976457 0.032546856 -0.06367962 -0.007600232 0.09841824 0.030319054
0.004426177 0.0825332 0.02159693 0.1098065 -0.0029303867 -0.13133039 -0.13514647 0.1145205
-0.027092963 -0.086493306 -0.0012430474 -0.011691356 -0.06395455 0.10190717 0.006214046 0.04568456
0.020701194 0.008388814 -0.02691715 0.0602079 0.05034544 -0.061366525 0.046245717 -0.14003754
-0.13361087 -0.04347583 0.106019944 -0.10734166 -0.0348479 0.081466936 -0.033215307 0.13510635
-0.11390913 -0.08061086 0.006622994 -0.0010778191 -0.081534006 -0.0026464392 -0.048315234 -0.06562838
0.015016452 -0.052309606 -0.08551516 -0.1001103 0.032888666 -0.0016406351 -0.020143278 0.032590136
0.020032145 -0.011554522 -0.10783966 -0.06653613 0.04495498 0.045676813 0.058167733 -0.06315932
0.025730833 0.054898605 0.13666867 -0.12829414 0.123917386 0.030722566 0.101199046 0.118694186
-0.02380454 0.107902564 -0.06053299 0.11574703 0.044880968 0.06919431 -0.0667836 -0.07178557
-0.008023211 0.010419557 -0.050508484 -0.014787391 0.067374595 -0.03373939 0.056640666 -0.11095405
-0.03758193 0.04021788 -0.0064919 -0.012225265 0.026013948 -0.024295056 -0.11665566 0.10576158
-0.020913089 -0.03190329 -0.03891843 -0.11483467 0.009660095 0.082925655 -0.06210856 -0.046685405
-0.06740872 0.051185656 0.022276297 -0.027261253 0.09731995 -0.019732466 0.029220264 0.08815827
-0.13660197 0.11055178 -0.05601168 0.100941055 0.03854521 0.02477074 0.05236285 -0.12345173
-0.03094485 0.0025238693 -0.094026744 0.13940156 0.023674443 -0.09003531 -0.030628173 -0.11208786
-0.020420078 0.03777057 0.05986387 -0.08988489 0.024828346 -0.00772604 -0.017018307 -0.0060953824
0.051709436 0.13712731 0.08910988 0.04064171 0.12442442 0.0719695 0.0017721453 0.046444528
-0.024495332 -0.090583265 0.1030763 -0.13096395 0.025216702 -0.016731113 0.017982302 -0.006572797
-0.025239673 0.011940667 -0.057404887 -0.13151433 0.0109047955 -0.01476101 -0.098543614 0.020476144
-0.0047122207 0.11453889 0.026205663 0.041870225 0.07656687 0.0317614 0.0003377997 0.040341888
-0.013488275 -0.07715316 -0.06721009 -0.016314799 -0.028557183 0.043331 0.033898372 -0.06572921
0.09411157 0.07919057 -0.1281645 0.026355678 0.033087093 -0.016803948 -0.026566023 0.0879831
-0.03370351 0.019479817 0.0030645307 0.008030542 0.061366208 0.011871268 0.12736712 -0.0015838163
-0.042757336 0.038367517 -0.0048657446 -0.042730577 -0.04032726 -0.04786661 -0.13492346 -0.0034041635
-0.013999744 -0.015080244 -0.034509797 -0.014786591 -0.05067146 -0.044481825 0.03912568 -0.029802948
0.012077758 -0.08790938 -0.084347956 0.052797135 0.04897079 -0.030955728 0.07804658 -0.06962575
0.04169274 0.04550861 0.14238994 0.033330824 0.057083733 -0.011550816 -0.064006165 -0.011144561
0.13473938 -0.036234684 -0.004891627 0.009324315 -0.0013085781 -0.004938868 -0.11018142 0.0876141
-0.07241782 -0.019151269 0.09996895 0.06072303 0.09976759 -0.059920486 0.019314468 -0.075826585
