app/src/main/assets/model_01.tflite (tflite, 87664 bytes, 2 tensors)

model/conv2d_transpose/BiasAdd/ReadVariableOp/resource f4 [32]
000000 00 00 00 00 00 00 00 00 00 00 00 00 00 00 00 00
       0.0 0.0 0.0 0.0
000010 00 00 00 00 00 00 00 00 00 00 00 00 00 00 00 00
       0.0 0.0 0.0 0.0
000020 00 00 00 00 00 00 00 00 00 00 00 00 00 00 00 00
       0.0 0.0 0.0 0.0
000030 00 00 00 00 00 00 00 00 00 00 00 00 00 00 00 00
       0.0 0.0 0.0 0.0
000040 00 00 00 00 00 00 00 00 00 00 00 00 00 00 00 00
       0.0 0.0 0.0 0.0
000050 00 00 00 00 00 00 00 00 00 00 00 00 00 00 00 00
       0.0 0.0 0.0 0.0
000060 00 00 00 00 00 00 00 00 00 00 00 00 00 00 00 00
       0.0 0.0 0.0 0.0
000070 00 00 00 00 00 00 00 00 00 00 00 00 00 00 00 00
       0.0 0.0 0.0 0.0

model/conv2d_transpose/conv2d_transpose f4 [32, 5, 3, 45]
000000 a0 a2 04 bd fe 83 05 be bb 09 85 3d 65 f4 ca bc
       -0.032381654 -0.13038632 0.064959966 -0.02477474
000010 6a 26 b9 bd 8b e7 af 3d 8b 03 11 3d 3d cb 82 3d
       -0.0904053 0.08589085 0.03540377 0.06386421
000020 20 a8 31 3d 8b d8 63 bd b8 72 a2 3d 0f 98 83 3c
       0.043373227 -0.055626433 0.07932037 0.016063718
000030 61 da 2b 3d e4 22 2a bd 69 96 36 bb 46 08 b9 3d
       0.04195631 -0.04153718 -0.0027860648 0.09034781
000040 6d c2 fe 3d 2b 6b ca 3a f1 11 37 bd d4 15 63 3d
       0.124394275 0.0015443315 -0.044694845 0.05544074
000050 da a2 5c bb 8a 95 e5 bd 66 ef 83 3c 71 98 a0 3d
       -0.0033666403 -0.11210163 0.016105365 0.07841576
000060 da 41 16 3b 30 2c 30 bd 4e df 7d 3b d6 1f e2 bd
       0.0022927434 -0.04301089 0.0038737836 -0.110412285
000070 76 2c cf bc 1d c9 81 bd 66 47 0c 3e 1d 5b 11 3e
       -0.025289755 -0.063371874 0.13699111 0.14194913
000080 76 a1 e6 bd 70 69 73 bc 24 95 59 bd 65 2f 9e 3d
       -0.11261265 -0.014856681 -0.053120747 0.077238835
000090 80 b7 b7 3b 72 20 6d 3d ad 1a 14 3c 63 34 4d 3d
       0.0056065917 0.05789227 0.009039563 0.050098788
0000a0 06 61 c0 bd 6d 82 57 3d ab fc b0 3c 6f 62 ad 3c
       -0.09393506 0.052614618 0.021604856 0.0211651
0000b0 cd 6a 6b 3d 7f 13 37 3c 9b c2 10 bd 92 3b 87 3d
       0.0574749 0.011174082 -0.03534184 0.06603159
0000c0 69 c2 e1 bd 05 15 f4 bc 2b 1e 77 bd fe 35 e1 3d
       -0.11023409 -0.02979518 -0.060331505 0.10996626
0000d0 55 d1 44 3c 61 f1 ae bd 67 3a 98 3d 23 74 26 3d
       0.012012799 -0.08542133 0.07433014 0.0406381
0000e0 d3 39 f4 bd 59 e3 93 bd 59 17 15 be 10 19 ea bc
       -0.119250916 -0.072210975 -0.14559688 -0.028576404
0000f0 e0 15 ce bd e3 68 d2 3c 68 d7 b6 3a 7a 68 f1 bb
       -0.10062766 0.02568478 0.0013949694 -0.007367191
000100 9b f2 d5 bc 86 c5 10 be 42 90 21 3b ad c7 f4 bd
       -0.02611666 -0.14137849 0.0024652635 -0.11952148
000110 ee 56 56 3d 14 84 dd 3d 66 d3 eb 3c 9c ee c3 3c
       0.052328996 0.108162075 0.028787326 0.023917489
000120 28 8c ea 3b f0 be 5a 3d 26 71 00 3d f8 d2 0c 3d
       0.007157821 0.05340475 0.031357907 0.034380883
000130 f1 6e 0d bc 13 c5 ec 3d 9a 8f 82 bc 97 0b 0d 3d
       -0.0086324075 0.115610264 -0.015937615 0.03443488
000140 cd db a9 3d 1b 25 c9 bd 19 21 bb bc af 54 92 bc
       0.08293877 -0.098215304 -0.02284293 -0.017862646
000150 db 07 37 bd 3e 0a 98 bd 7c 78 90 bd 2e f2 71 bd
       -0.044685226 -0.074238285 -0.070542306 -0.05906885
000160 b7 a0 93 bd 5a 04 45 3c 16 50 82 3d b3 19 a7 3b
       -0.07208388 0.012024963 0.063629314 0.005099499
000170 87 87 da 3d 7b 89 a7 3c ed f0 8d 3d 69 e1 87 3d
       0.10670381 0.020451298 0.069307186 0.066347905
000180 12 18 82 3d 75 7e 25 3d 8a 9b 51 3c c1 ec f2 bd
       0.06352247 0.040403802 0.012793431 -0.118615635
000190 d9 89 01 bd 76 11 4f 3c 36 fd af bd 20 13 c2 bd
       -0.031625602 0.01263844 -0.08593218 -0.09476304
0001a0 a5 cc 1d bd 15 a0 8f 3c 96 89 13 3d f6 b8 cb 3c
       -0.038525242 0.017532388 0.036019884 0.02486847
0001b0 68 48 98 3d 5d 6f 44 bd 3b 36 2a bc 42 76 b3 3c
       0.074356854 -0.047957767 -0.010388906 0.021906976
0001c0 60 c5 92 3c 31 59 f8 bc e1 4a da 3c a3 38 86 3d
       0.017916381 -0.030315967 0.026647033 0.06553771
0001d0 27 d3 05 3d 60 ac a8 bc 63 3a fa bd 16 1a 06 bd
       0.032672074 -0.020590007 -0.12218168 -0.03273972
0001e0 e3 0e d3 bc 53 8f 00 3e 8d 29 16 bc 2d ea 39 3c
       -0.025763934 0.12554674 -0.00916518 0.011347336
0001f0 3b 96 04 bd 31 ac 83 3d ab ea 05 bd 1b d7 94 3a
       -0.032369833 0.06429327 -0.0326945 0.001135561
000200 f6 64 84 bc 38 9f 94 bb 84 eb 92 bc 46 d0 fd 3d
       -0.016161423 -0.004535582 -0.017934568 0.12393241
000210 06 34 37 bd 6f 3d 1e bd f0 bd b6 bc 3d d4 bc 3d
       -0.044727348 -0.038632806 -0.022307366 0.09220169
000220 05 74 0f be b6 fb 4b 3c 62 b6 4c 3d bd 6e 0a 3e
       -0.14009102 0.012450149 0.04997862 0.13518806
000230 55 88 f0 3c 5f c6 03 be 71 2d c7 bb d8 de ed bd
       0.029361883 -0.12868641 -0.006078415 -0.1161477
000240 42 d5 e5 bd 9c bf d8 3c 66 f3 f8 3d 62 f8 1e bd
       -0.11222316 0.026458554 0.121557996 -0.038811095
000250 63 30 c9 bd a3 bc 10 3d 8a 80 7c 3d 4b 04 d7 bd
       -0.09823682 0.035336148 0.061646022 -0.10498866
000260 38 34 12 3d 06 c2 bd bc 80 92 ac 3c b3 9e 6f 3d
       0.03569433 -0.023163807 0.02106595 0.058500957
000270 9f cb f2 3b 0b 9f 8d 3c 05 44 04 bd 2b 43 1a bd
       0.0074095274 0.017287752 -0.03229143 -0.037661713
000280 d4 85 d8 bc d8 32 c1 bd 28 18 d2 3c 6c dc a2 bc
       -0.026431002 -0.09433526 0.025646284 -0.019880496
000290 87 aa d8 3d 35 e5 c7 bd 4e c1 4c 3c 5c 74 97 3d
       0.105794005 -0.09760515 0.012497259 0.07395241
0002a0 e4 c8 b0 bd 48 95 96 bd 49 ee 32 bd e8 9e 95 3d
       -0.08632067 -0.07352692 -0.043684278 0.073056996
0002b0 4b a9 86 3d ec 9b bf bd 1b 0c 7e 3d 91 c6 78 bd
       0.06575259 -0.093559116 0.062023263 -0.060736243
0002c0 45 71 80 bd 55 45 05 3c bd 50 c4 3b 22 cd 10 bc
       -0.062716044 0.008134206 0.00599107 -0.00883797
0002d0 a2 e8 cf 3d b2 c7 e5 3d bc f2 71 bd aa 46 c1 3d
       0.10151793 0.112197295 -0.05906938 0.09437306
0002e0 4c 8b 9b 3d 3e 57 cc bd ea 63 e2 bd 37 ec 3a 3d
       0.07594928 -0.099775776 -0.11054213 0.04563543
0002f0 d9 32 07 bd 00 5a a9 bd 1e 2d 4a bc e2 37 11 3d
       -0.033007476 -0.08269119 -0.012339858 0.035453685
000300 c7 e6 85 3d c2 a8 9f 3c 8c fe 9a bd 48 14 8c bc
       0.06538158 0.01948965 -0.07568082 -0.017099515
000310 11 a6 46 bc 4e 78 b5 3d e8 72 5e bd 36 67 87 bc
       -0.012124554 0.08860837 -0.054308802 -0.016528707
000320 af 9d a4 bd 47 81 55 3c 76 d4 93 bb 93 83 d8 bd
       -0.08037888 0.01303131 -0.0045114113 -0.10571971
000330 e3 70 25 3c 67 90 5d 3b ae 64 7c 3b e6 d7 18 3d
       0.010097715 0.0033807994 0.0038512158 0.03731527
000340 0b 6b ad 3c 1f 44 9b bd a1 65 6c 3b 41 1d d1 3d
       0.021169206 -0.075813524 0.0036071318 0.10210658
000350 7a ff f7 bd fc 1e 37 bd 98 2c 1b bd 60 71 7d bc
       -0.12109275 -0.044707283 -0.037884325 -0.015468925
000360 f8 2c 94 bc 1d 81 b3 bd 5d 19 78 3d 29 af 42 3d
       -0.018087849 -0.08764861 0.060571063 0.047530327
000370 d6 b7 b6 bd db 10 7c bd fa 11 42 3d f0 76 28 bd
       -0.08921783 -0.061539512 0.047380425 -0.041129053
000380 33 c6 29 bd 0e 14 f8 bd e7 48 80 bd 86 72 d4 3d
       -0.041448783 -0.121132 -0.06263905 0.10373406
000390 2e 00 5a bd 15 a1 2c bd fb f1 29 3d d4 13 9a bc
       -0.053222828 -0.042145807 0.041490536 -0.018808283
0003a0 0f 84 dc bc ce ca 09 be d0 28 dd bc 50 c3 6b bd
       -0.02691844 -0.1345627 -0.026997 -0.05755931
0003b0 72 8f bf 39 d7 11 44 bc b2 e7 4b bb e0 2b f7 bc
       0.00036537234 -0.011967144 -0.0031113443 -0.030172288
0003c0 3e 0d 49 3d 2a c9 84 3b 8e c3 3f 3d c5 cf 2f bd
       0.049084894 0.004052301 0.046817355 -0.042922754
0003d0 57 f1 05 be 0c 20 41 3d f8 7c de bd f3 05 82 bd
       -0.13080345 0.047149703 -0.1086368 -0.06348791
0003e0 c1 cc 56 bc 70 15 82 ba f5 68 b6 bd c9 60 f4 bb
       -0.013110341 -0.0009924602 -0.08906738 -0.0074578268
0003f0 cf d0 f9 3d 5a 8a 0e 3e b2 ad af bd 8f bf b1 3d
       0.1219803 0.13919964 -0.085780516 0.08679115
