app/src/main/assets/model_04.tflite (tflite, 87696 bytes, 2 tensors)

model_3/conv2d_transpose_3/BiasAdd/ReadVariableOp/resource f4 [32]
0	0x00000000	0.0
1	0x00000000	0.0
2	0x00000000	0.0
3	0x00000000	0.0
4	0x00000000	0.0
5	0x00000000	0.0
6	0x00000000	0.0
7	0x00000000	0.0
8	0x00000000	0.0
9	0x00000000	0.0
10	0x00000000	0.0
11	0x00000000	0.0
12	0x00000000	0.0
13	0x00000000	0.0
14	0x00000000	0.0
15	0x00000000	0.0
16	0x00000000	0.0
17	0x00000000	0.0
18	0x00000000	0.0
19	0x00000000	0.0
20	0x00000000	0.0
21	0x00000000	0.0
22	0x00000000	0.0
23	0x00000000	0.0
24	0x00000000	0.0
25	0x00000000	0.0
26	0x00000000	0.0
27	0x00000000	0.0
28	0x00000000	0.0
29	0x00000000	0.0
30	0x00000000	0.0
31	0x00000000	0.0

model_3/conv2d_transpose_3/conv2d_transpose f4 [32, 5, 3, 45]
0	0xbdbcfcbc	-0.09227893
1	0xbd64deef	-0.05587667
2	0x3d8d3309	0.068945
3	0x3c2a195f	0.0103820255
4	0xbdec6e61	-0.115444906
5	0x3d88540e	0.06656657
6	0xbd04d2c9	-0.032427583
7	0xbdc283b3	-0.09497776
8	0xbd8cb0bd	-0.06869648
9	0x3d4a3038	0.04936239
10	0xbd70a21a	-0.058748342
11	0xbc57af69	-0.01316438
12	0x3d907efd	0.07055471
13	0xbdfb53f6	-0.12271874
14	0x391cfc6e	0.00014971357
15	0xbd960cef	-0.07326686
16	0x3d923de1	0.07140709
17	0xbb073c6b	-0.0020635377
18	0xbda8dd99	-0.082453914
19	0xbcb2b91d	-0.021816785
20	0x3db33205	0.08749775
21	0xbd6a2099	-0.057159994
22	0x3dfd83a1	0.12378622
23	0x3d068833	0.032844733
24	0xbd637d4b	-0.05553941
25	0xbb030362	-0.001999103
26	0x3d827e4e	0.06371747
27	0x3ddaf062	0.10690381
28	0x3d54c5a0	0.051946282
29	0xbd6c9236	-0.057756625
30	0xbb078ba9	-0.002068261
31	0xbc96db17	-0.018415017
32	0xbd89baaa	-0.067250565
33	0xbc66f83e	-0.0140972715
34	0xbd33894c	-0.04383211
35	0xbdd7bad9	-0.10533685
36	0x3d0ca0f6	0.03433319
37	0x3de7a7a6	0.11311273
38	0x3d68d60a	0.05684475
39	0xbd9d6adc	-0.076863974
40	0x3c64b8a0	0.013960034
41	0xbd6d47ea	-0.05792991
42	0x3d901cc1	0.07036734
43	0x3dde551c	0.10856077
44	0x3c8cce66	0.017188262
45	0x3dac80c5	0.08422998
46	0x3dcd2941	0.10017634
47	0x3e116bf0	0.14201331
48	0xbce4e192	-0.027939592
49	0x3de3356d	0.110941745
50	0x3de61ed2	0.11236347
51	0xbce058a5	-0.027386019
52	0x3cc16792	0.023608956
53	0x3d4b7650	0.04967338
54	0x3c33d27c	0.010975476
55	0xbd25fa92	-0.040522166
56	0xbd1e7afd	-0.03869151
57	0x3d86d7ec	0.065841526
58	0xbde2aeae	-0.11068474
59	0xbd12cedb	-0.035841804
60	0xbcc21a82	-0.02369428
61	0xbc5a0cf7	-0.013308755
62	0xbd27499e	-0.04084169
63	0x3d4c53e8	0.049884707
64	0xbc28e57b	-0.010308619
65	0xbbd86ed7	-0.00660501
66	0xbca188ec	-0.01971861
67	0xbb710581	-0.0036776962
68	0x3d24c0a2	0.04022277
69	0x3ccf5260	0.025307834
70	0xbd94455d	-0.072397925
71	0x3ddc6d56	0.10763042
72	0x3b918369	0.004440714
73	0x3dc9f852	0.098618165
74	0xbcac3582	-0.021021608
75	0x3d3367b1	0.04380006
76	0x3d868ab7	0.065694265
77	0x3d28e752	0.04123623
78	0xbd3a518a	-0.045487918
79	0x3db2dd07	0.08733564
80	0x3ca9076c	0.020633422
81	0xbc1e03f6	-0.009644499
82	0xbcbcdefc	-0.023055546
83	0x3d91de11	0.07122434
84	0x3d8f489a	0.069962695
85	0xbd56abd4	-0.05240996
86	0x3d72f811	0.059318606
87	0x3c3914e1	0.011296482
88	0x3b0c6c9d	0.0021427043
89	0x3d4f3651	0.05058891
90	0xbdb267bc	-0.08711192
91	0x3dcdc094	0.10046497
92	0xbaf42471	-0.0018626583
93	0x3d08fde5	0.033445258
94	0xbd0f71c4	-0.035020605
95	0x3d412bc6	0.047160886
96	0xbc8af0c4	-0.01696051
97	0xbbee0cee	-0.007264725
98	0xbcde028b	-0.027100822
99	0x3d460118	0.048340887
100	0x3c59c637	0.013291887
101	0x3d2f1093	0.042740416
102	0x3ce91bb0	0.028455585
103	0xbc6754d5	-0.014119347
104	0x3de12098	0.10992545
105	0x3d7bb52d	0.06145208
106	0xbdda1a98	-0.106496036
107	0xbd705e4d	-0.058683682
108	0xbc019715	-0.007909556
109	0xbc8bff9c	-0.017089657
110	0xbdff507b	-0.12466522
111	0xbcbf8d29	-0.02338274
112	0xbc28e096	-0.010307452
113	0x3c2bec8c	0.010493409
114	0xbc834d05	-0.016027937
115	0xbdab7e3f	-0.08373689
116	0xbddc895e	-0.10768388
117	0x3d23988e	0.03994041
118	0x3dea1927	0.11430579
119	0xbda06806	-0.07832341
120	0xbe143c13	-0.14476041
121	0xbcfc22ac	-0.030778252
122	0x3dc1db9a	0.09465714
123	0x3e15c0f0	0.14624381
124	0x3a3a5ba6	0.00071089936
125	0xbd7c7ee2	-0.061644442
126	0xbb312b6b	-0.0027033936
127	0x3d61b53a	0.05510447
128	0xbdc0ac7a	-0.09407897
129	0xbb55cc91	-0.0032623152
130	0x3d820860	0.06349254
131	0xbced7a09	-0.028988855
132	0xbd27712e	-0.04087942
133	0x3dca429c	0.09875986
134	0x3d4c0d71	0.049817506
135	0xbc8ac8be	-0.016941424
136	0x3da3bdfd	0.07995222
137	0x3cde4b70	0.02713558
138	0x3d4649f4	0.04841037
139	0xbd2e62ef	-0.04257482
140	0xbdd1ec41	-0.1025014
141	0xbb74b808	-0.0037341136
142	0x3d9b4165	0.075808324
143	0xbd30241a	-0.04300318
144	0x3d9abb90	0.07555306
145	0xbcb5c98e	-0.022190835
146	0x3ce53d7e	0.027983423
147	0x3d0f6810	0.03501135
148	0x3ca0ef1a	0.019645263
149	0x3cf03fd8	0.029327318
150	0x3998e700	0.00029163808
151	0x3dbc17d2	0.09184231
152	0x3d36ae36	0.044599734
153	0xbe0970e7	-0.13421975
154	0xbd6d6a72	-0.057962842
155	0xbd3fd7c7	-0.04683664
156	0xbc92ee38	-0.017935857
157	0x3c8a6149	0.016892092
158	0xbd3f246e	-0.0466656
159	0xbd872943	-0.06599667
160	0xbd2c55b1	-0.04207391
161	0x3d04a22d	0.032381225
162	0xbd841eb4	-0.06451169
163	0x3a145ce4	0.0005659594
164	0xbc970e12	-0.018439326
165	0x3d8d4242	0.06897403
166	0x3dd3cb51	0.10341514
167	0xbdcc7330	-0.09982908
168	0x3cf172b5	0.029473642
169	0xbd91fbea	-0.07128127
170	0x3d13bba5	0.036067624
171	0x3d12fba6	0.035884522
172	0xbd7210d7	-0.05909809
173	0xbda58d31	-0.08083571
174	0x3d863095	0.06552235
175	0x3d53b193	0.05168302
176	0xbdaede39	-0.08538479
177	0xbd4bf4ce	-0.04979401
178	0x3b863a2d	0.0040962906
179	0xbcbc663e	-0.022997972
180	0xbda12397	-0.07868116
181	0x3dbd89e6	0.09254818
182	0xbcf9a171	-0.03047249
183	0xbd071344	-0.032977358
184	0xbdd69032	-0.10476722
185	0xbd20a0f6	-0.039216004
186	0xbddd3a0d	-0.10802088
187	0xbd869c29	-0.06572754
188	0x3c1db787	0.009626276
189	0x3d7dc5df	0.061956283
190	0xbcb29e1b	-0.021803906
191	0xbc384fc6	-0.011249488
192	0x3dccc477	0.0999841
193	0x3d206c96	0.039166056
194	0xbdd97ccf	-0.106195085
195	0x3d5adfda	0.053436138
196	0xba17c33b	-0.00057892845
197	0x3c34e381	0.011040569
198	0xbdf54d2e	-0.119776115
199	0xbd282c5e	-0.041057937
200	0x3ca4fc80	0.020139933
201	0xbd5444aa	-0.051823296
202	0xbb8ef8a6	-0.0043631373
203	0xbd1dd5c3	-0.038533937
204	0xbdbbfdb5	-0.0917925
205	0xbd9e30b0	-0.0772413
206	0x3bcb2644	0.00619963
207	0xbdc93a02	-0.09825517
208	0x3e062ef0	0.13103843
209	0xbd367f7a	-0.044555165
210	0xbd16d62e	-0.03682535
211	0x3c5c0658	0.013429247
212	0xbc5cad08	-0.013468988
213	0x3ba300c4	0.0049744565
214	0x3db1d79d	0.08683703
215	0x3d9a69ab	0.07539686
216	0x3db21352	0.08695091
217	0xbd1512e9	-0.036394987
218	0xbc105624	-0.0088096
219	0x3dbc827b	0.09204575
220	0xbdccfc8e	-0.100091085
221	0xbda07b8c	-0.07836065
222	0xbd3df27a	-0.04637382
223	0x3d4a3d8f	0.049375113
224	0x3d907da1	0.07055212
225	0x3d3aee82	0.045637615
226	0x3d2ac5c6	0.041692518
227	0x3d49960f	0.049215373
228	0xbd5ea529	-0.054356728
229	0xbda34ffa	-0.07974239
230	0x3db28e0e	0.08718501
231	0xbde9d4c4	-0.11417535
232	0xbc80d588	-0.01572682
233	0x3d5cfdf8	0.05395314
234	0x3d808cf9	0.062768884
235	0xbdc23672	-0.09483041
236	0xbc82bc6e	-0.01595899
237	0x3ced9fa2	0.029006783
238	0xbdffed85	-0.12496475
239	0x3e097c01	0.1342621
240	0xbdeba681	-0.115063675
241	0x3c7f70b6	0.015590837
242	0xbdbe397e	-0.092883095
243	0x3cde1d7b	0.027113667
244	0xbd671c0e	-0.05642324
245	0xbdfcd723	-0.123457216
246	0x3dbefc91	0.09325517
247	0x3ce32930	0.0277296
248	0x3dc7edd1	0.09762157
249	0x3d3decf1	0.046368543
250	0x3d6bddc3	0.057584535
251	0xbc610fe5	-0.0137367
252	0x3e03aeaf	0.12859605
253	0x3cf284c3	0.029604321
254	0xbd4ea851	-0.050453488
255	0x3d522245	0.051302213
