app/src/main/assets/model_03.tflite (tflite, 87680 bytes, 2 tensors)

model_2/conv2d_transpose_2/BiasAdd/ReadVariableOp/resource f4 [32]
00000000: 0000 0000 0000 0000 0000 0000 0000 0000
00000010: 0000 0000 0000 0000 0000 0000 0000 0000
00000020: 0000 0000 0000 0000 0000 0000 0000 0000
00000030: 0000 0000 0000 0000 0000 0000 0000 0000
00000040: 0000 0000 0000 0000 0000 0000 0000 0000
00000050: 0000 0000 0000 0000 0000 0000 0000 0000
00000060: 0000 0000 0000 0000 0000 0000 0000 0000
00000070: 0000 0000 0000 0000 0000 0000 0000 0000
0.0 0.0 0.0 0.0 0.0 0.0 0.0 0.0
0.0 0.0 0.0 0.0 0.0 0.0 0.0 0.0
0.0 0.0 0.0 0.0 0.0 0.0 0.0 0.0
0.0 0.0 0.0 0.0 0.0 0.0 0.0 0.0

model_2/conv2d_transpose_2/conv2d_transpose f4 [32, 5, 3, 45]
00000000: 29d2 0e3e b452 4c3c 7cd5 933c 4b15 78bd
00000010: fad2 33bd 0a0c 613d e67f 1a3d 4be2 13be
00000020: e2a1 803c 4590 9cbd 0a8d f93c e1e6 22bb
00000030: 086d 5b3d 1aa7 cfbc d91d 0bbb 86d8 cbbc
00000040: f6f9 0ebb 8960 ed3c 301a afbd ace9 113e
00000050: 21fe 5d3b ec5f 58bb 5ed1 1a3c 26e8 433c
00000060: 6aa4 083e 2afc a0bd febb 893d 0fe0 fbbc
00000070: 0db8 a23d 5dc9 54bd 406e be3d 2bce 2a3d
00000080: 1d72 283c 2ffd 0e3e 54e1 9ebd 5be0 ca3d
00000090: cc00 6dbd 5910 1a3d 7af7 b8bd 6672 08bc
000000a0: 92e7 be3d d0cf b9bb eb02 ecbc 4be7 abbc
000000b0: 328f 913c c464 8d3c 5136 03bc c2e4 6ebb
000000c0: cfef d83d e95a df3b 605c 28bd f5bc 99bc
000000d0: 9e8d 743d 9d0c 1e3d 1e56 a2bd 4b25 eabb
000000e0: 9521 bbbd 605b 6a3d 77f3 adbd 8f58 2f3c
000000f0: 059b 043d e974 013e e23f 27bd 77ea a8bc
00000100: 55d7 f2bc d116 bc3d fadd f43c 47c7 183d
00000110: dfae 0cbe da39 58bc 101f 023e b959 d43d
00000120: 2685 31bd 37dc 803c 9a3c adbc f35b a23d
00000130: 08fc 1fbd 5fe8 8b3b db64 823c 9b02 f13d
00000140: 768b 0ebd be40 ae3d db00 923d bfd5 0e3e
00000150: 1c59 f3bd 07c4 d5bc 3c9d b03b 0382 6d3d
00000160: 7936 073e 54f0 07bd 0f9b fb3d b3c4 bcbc
00000170: 239c dd3c 766b e5bd db07 b73d 649a 903d
00000180: 5896 0d3e e081 c73d 5074 88bd dd0e c5bd
00000190: 1081 0b3d 4c58 a9bd 3de3 12be fb58 723c
000001a0: d430 afbd c011 71bc 4a38 47bd 5ab3 12bd
000001b0: 9aa7 7fbc 23f0 703d d0b1 613c caf8 c83d
000001c0: 1cb9 5ebd d078 b33c c629 0f3c aeff a4bd
000001d0: a092 b6bc f6cb 89bc 28ad e03d 245e 33bd
000001e0: 199e ec3c de26 ccbd f178 a8bc d815 82bd
000001f0: aa78 9fbd 3ece d93c afec dc3d 57b1 f6bc
00000200: e011 493c d394 3cbd 8cc7 7f3d 22ed 793d
00000210: ed5e b93d e7c3 6abd 929b 45bd b3ed bc3c
00000220: fb7c dfbc ddf6 e33c 10f1 29bd 9019 9bbd
00000230: 7fc0 dd3c 4db3 96bd 17bb 963d 5c1b 523d
00000240: c16a 4d3d 98ab a5bd 47a0 f23c 1a33 a53d
00000250: f992 a23d 90a8 68bd 83b8 203d d72f 583d
00000260: c129 d93c c906 573d 95f7 44bd b339 d83d
00000270: 301a ea3d 1583 863d 6634 8ebd 5f2f a33d
00000280: 2b69 2fbc 1192 1d3d af27 893d 4741 3cbd
00000290: 3c81 10be 7644 2ebd 2e51 e7bd 7d43 8a3d
000002a0: 8986 823d c9d7 acbc 0a9d 843c 551a 2a3c
000002b0: 5ddb 98bb f2de 1abc 3b0b 8c3c f361 5c3c
000002c0: 1081 b6bd a447 b93d fd56 963d 250e f8bd
000002d0: ad4b 703d e10a 863c 1010 aebc 2e18 52bd
000002e0: 5b12 e63d 05fc d6bc fe47 593c d5e4 8a3d
000002f0: 8a25 89bd afc2 ec3c f31d 713d 79a7 c13c
00000300: 6197 1cbd abc3 843a 3644 b33d c635 57bd
00000310: 446f ae3d ac70 323d 1420 bb3d 62cb 1cbd
00000320: 7f5e a2bd e143 c53d 2cae 963d 7727 993d
00000330: d6e5 06be 20c5 5ebd 1b10 e0bd d45c debd
00000340: 9800 d3bc f2eb 93bb 220c 80bb fd94 903d
00000350: 0566 57bc d84c d13c 0ea9 3c3b 0bfa 23bd
00000360: 704b 4a3c 12d2 4e3d 55e9 0a3c 3360 aa3d
00000370: dd4b 13be 520f 903c 771b 36bd e798 d7bd
00000380: 6f7b 3b3d 526d c33d 3332 74bd 1a02 343c
00000390: 2380 c0bd 4430 60bd 302b 50bd ecf3 43bd
000003a0: 0164 053d 11b7 f53d 5503 8ebd a96e 7ebd
000003b0: 0adb 95bd 19d5 0dbe 42ef 4a3c 9813 463c
000003c0: daeb 3f3d 8fdd 7dbc 12c4 dc3d 0588 eebc
000003d0: 2e2b 2a3d 4772 a13d 1470 88bd b3b1 92bd
000003e0: 0cdd bd3c 6b30 c7bc 83cd dbbd 158c 393d
000003f0: 16ea 00bd d56a a2bd 7a13 a2bd 3d49 b43c
0.13947357 0.01247089 0.018046133 -0.06056718 -0.043902375 0.054943122 0.03771963 -0.14441793
0.015702192 -0.07644705 0.03046276 -0.0024856853 0.053570777 -0.025348235 -0.0021227507 -0.02488352
-0.0021816469 0.028976696 -0.08549917 0.14249295 0.0033873396 -0.0033016158 0.009449331 0.011957204
0.13343969 -0.078605965 0.0672531 -0.030746488 0.07945261 -0.051949847 0.09298372 0.041700523
0.010281113 0.1396377 -0.07757822 0.09906074 -0.057862088 0.037613247 -0.090315774 -0.008328056
0.09321512 -0.005670525 -0.028809985 -0.020984313 0.017768476 0.017259963 -0.0080085555 -0.0036452268
0.10592615 0.0068162573 -0.04110372 -0.01876686 0.05970537 0.038586248 -0.07926582 -0.007145559
-0.09137265 0.05721605 -0.08493703 0.010702266 0.0323744 0.12642254 -0.040832408 -0.020619614
-0.029643694 0.091840394 0.029891003 0.03729942 -0.13738583 -0.013197387 0.12707162 0.10368676
-0.04333987 0.015730007 -0.021147061 0.07927694 -0.039058715 0.004269644 0.015917232 0.11768075
-0.03480097 0.08508442 0.071290694 0.13948725 -0.11882231 -0.02609445 0.0053898375 0.057985317
0.13204373 -0.03318818 0.122854345 -0.023043012 0.02705199 -0.11202137 0.08937045 0.07060698
0.13826883 0.097415686 -0.0666281 -0.096219756 0.03405863 -0.082687944 -0.14344497 0.014791722
-0.08554235 -0.014713705 -0.048637666 -0.035815574 -0.015603924 0.058822762 0.013775304 0.09813078
-0.054375753 0.021908194 0.008737987 -0.080565795 -0.022286713 -0.016820889 0.10970527 -0.04379095
0.02888398 -0.09968351 -0.020565482 -0.063518226 -0.07786687 0.026587602 0.10787331 -0.03011386
0.012272328 -0.046040367 0.062446162 0.061017163 0.09051309 -0.057315733 -0.048244067 0.023062563
-0.027281275 0.027827675 -0.04148966 -0.07573235 0.027069328 -0.07358418 0.07359903 0.051295623
0.050150637 -0.080893695 0.029617442 0.080663875 0.07938189 -0.05680138 0.039238464 0.05278
0.026509168 0.052496705 -0.048087675 0.1055788 0.11430776 0.06567971 -0.06943588 0.0796802
-0.010706226 0.038469378 0.06697022 -0.04596069 -0.14111799 -0.04254576 -0.11294781 0.067511536
0.06373317 -0.021098988 0.016188163 0.010382255 -0.004664822 -0.009452568 0.017095199 0.013451087
-0.089113355 0.090468675 0.073408104 -0.12112073 0.05866592 0.01636261 -0.021247894 -0.05129259
0.1123397 -0.02624322 0.013261793 0.067819275 -0.06696613 0.028901426 0.058866452 0.023639427
-0.038230304 0.0010129114 0.087532446 -0.052541517 0.08517316 0.043564484 0.09136978 -0.0382799
-0.0792818 0.096320875 0.073574394 0.074782304 -0.13173613 -0.05438721 -0.10940572 -0.10857549
-0.025757119 -0.004514211 -0.0039076963 0.07059667 -0.013146882 0.025549337 0.0028787288 -0.04003338
0.012347087 0.050493307 0.008478482 0.0831913 -0.14384408 0.01758543 -0.044459786 -0.10527211
0.045772012 0.095423356 -0.059618186 0.010986829 -0.0939944 -0.05473353 -0.050822437 -0.047840044
0.032566074 0.11997808 -0.06934229 -0.062117252 -0.07317169 -0.13850822 0.012386145 0.012089632
0.046855785 -0.015494718 0.10779585 -0.029117594 0.041545086 0.07883125 -0.06662002 -0.071628
0.023176692 -0.02431508 -0.107325576 0.04529961 -0.03147324 -0.07930533 -0.07913871 0.022007579
